models/252.7424256414175-rwd-episode-835_actor.pth (torch, 825615 bytes, 8 tensors)

l1.weight f4 [512, 12]
0.94713765 1.6661474 -0.4291476 0.29760528 1.2512819 0.11385142 -0.48266965 0.99407405
-0.07671816 0.59497064 0.8728607 -0.9881484 0.2934239 1.0140276 -0.5560879 1.5509368
-0.3027569 -1.2749717 -0.5298821 -0.35281658 0.1652251 0.60320735 0.12707415 -0.0881783
-0.02529714 0.14811274 0.06866181 0.089932345 -0.0019048984 -0.92383736 0.119336665 -0.06262885
-5.197134 1.4732385 -0.88201475 -0.23459627 -0.8026292 -0.2818331 1.5282868 -1.0475938
0.68160754 -0.85903066 0.73859805 0.35161057 0.6593655 -0.5482823 0.7186227 -2.605474
-0.28855073 0.41550916 1.1892589 0.11018457 0.64163065 -0.3182676 0.4874258 -1.0040046
-1.0541034 0.045352988 0.5701774 -2.3109806 1.1100333 0.43307453 -0.16808453 -0.50480324
0.5790119 -0.22549766 0.39075375 -0.30210128 1.0872128 0.900697 -0.22704658 -0.99576443
-0.6481231 0.38845438 0.99651545 -0.26092318 -0.16357376 0.10407995 -0.64507437 -0.12499443
-0.8152836 0.6570017 -0.58470315 -2.4317842 -0.3923544 0.39316472 0.09590267 -0.52466005
-0.43845516 -0.8557397 0.6743776 0.79485154 0.70643556 1.2467201 -0.7994301 -0.5024846
-0.7120729 0.283345 0.9063682 -0.12702371 0.9381207 0.46961823 0.06486458 0.45013106
0.6381732 -0.7992137 -0.5174882 -0.8194121 -1.0823008 0.23704071 0.7444095 0.16979925
0.18226898 0.039746616 -0.26020822 0.10755508 4.553051 0.25304323 1.3472873 0.8251413
0.43649483 -0.009856385 0.08976513 0.44646615 0.1180938 -0.499054 0.1274501 -0.31320417
-2.7635186 -1.6784041 -0.5277166 -0.47191504 -0.305619 -0.7085307 -0.13896103 0.13841033
0.7946744 0.35413587 -0.64552444 0.04066774 -0.42206395 2.0539525 0.10739773 -1.446813
-0.42744198 0.08242067 0.16318665 0.38791072 -0.15098609 -0.8142722 -0.2673815 -1.4435302
-0.58703476 -1.6735781 -0.32191348 -1.640596 0.07686181 -0.2230254 -0.27812675 -0.18878688
0.09106441 -0.022415409 -0.16185203 0.07726516 -1.0088897 3.7744768 -3.3642504 0.652839
-0.50491554 -0.078499936 -0.23748022 0.113565005 0.77490926 -0.7135371 -0.4620187 -0.17813626
0.13598548 0.30423814 1.4812744 -1.0449629 -0.807625 -0.07910954 1.0078957 0.4151332
0.39981264 0.0054564252 -0.018349068 0.039381016 -0.18324211 -0.30486342 -0.39992064 -1.5557277
-0.15353297 -0.30150083 -0.54928446 -0.5096398 0.4310018 0.59829706 -0.036136057 0.8406513
-0.46295682 3.2818453 -1.4594334 -0.62853235 0.5181428 0.90790266 -1.5916753 -0.40434784
0.35649088 -0.57072353 -1.2370327 -0.5186399 1.0043285 0.024919607 0.40561554 -0.0069100843
0.31788996 0.088914156 0.18072069 0.30765614 -0.28926724 -0.35065556 -0.34981307 -1.3854957
-0.5931048 2.1898735 1.9425151 -1.0830805 0.52223366 0.34866837 0.4798028 0.8078559
1.3748455 1.0948924 1.0340288 -0.74688494 0.17093231 0.22186059 -1.6555102 -0.3502689
0.7750281 0.8975937 -1.2204561 0.8634711 0.50124794 0.51480156 -0.13976848 -1.053388
-0.35815933 1.2972622 0.77693146 0.27420565 0.32780126 -0.50279015 -0.60370463 1.4550958
00000000: 9d77 723f 5144 d53f 3cb9 dbbe b85f 983e
00000010: 012a a03f ef2a e93d 7a20 f7be a37b 7e3f
00000020: 691e 9dbd ff4f 183f cd73 5f3f 4bf7 7cbf
00000030: a83b 963e a8cb 813f c75b 0ebf 1985 c63f
00000040: f402 9bbe 4632 a3bf 5aa6 07bf 60a4 b4be
00000050: c530 293e cc6b 1a3f ba1f 023e d396 b4bd
00000060: f33b cfbc deaa 173e 909e 8c3d 732e b83d
00000070: c9ad f9ba 9b80 6cbf c866 f43d 8e43 80bd
00000080: ec4e a6c0 1493 bc3f b8cb 61bf 013a 70be
00000090: 1b79 4dbf 6e4c 90be e79e c33f 8e17 86bf
000000a0: d57d 2e3f 6fe9 5bbf c314 3d3f 4d06 b43e
000000b0: 2dcc 283f 3b5c 0cbf a8f7 373f 16c0 26c0
000000c0: ecbc 93be 9ebd d43e a339 983f 73a8 e13d
000000d0: e841 243f f9f3 a2be e08f f93e 3983 80bf
000000e0: dcec 86bf 0ec4 393d 25f7 113f 1be7 13c0
000000f0: 9215 8e3f f2bb dd3e 5a1e 2cbe c93a 01bf
00000100: 203a 143f dce8 66be e010 c83e 05ad 9abe
00000110: ca29 8b3f 1494 663f e67e 68be 6bea 7ebf
00000120: 65eb 25bf 7ee3 c63e a31b 7f3f b997 85be
00000130: e17f 27be de27 d53d 9823 25bf 14fd ffbd
00000140: 6db6 50bf 4331 283f 1baf 15bf 5aa2 1bc0
00000150: ade2 c8be e34c c93e 9e68 c43d 1f50 06bf
00000160: 327d e0be c211 5bbf 03a4 2c3f 647b 4b3f
00000170: f6d8 343f 8694 9f3f 73a7 4cbf d5a2 00bf
00000180: 694a 36bf 9912 913e bf07 683f 8112 02be
00000190: ae28 703f cd71 f03e b9d7 843d 9477 e63e
000001a0: 525f 233f 4599 4cbf 1b7a 04bf fec4 51bf
000001b0: d588 8abf cdba 723e 9f91 3e3f dbdf 2d3e
000001c0: b8a4 3a3e 59cd 223d 033a 85be d645 dc3d
000001d0: 98b2 9140 e28e 813e e973 ac3f 763c 533f
000001e0: 407c df3e ad7c 21bc c8d6 b73d 3697 e43e
000001f0: 2adb f13d 0284 ffbe 4782 023e 4c5c a0be
00000200: 7ddd 30c0 f2d5 d6bf 6f18 07bf d99e f1be
00000210: 187a 9cbe 4562 35bf cd4b 0ebe 70bb 0d3e
00000220: c86f 4b3f 4c51 b53e 1741 25bf 3793 263d
00000230: c418 d8be f573 0340 57f3 db3d 2b31 b9bf
00000240: add9 dabe 2bcc a83d 671a 273e 3c9c c63e
00000250: 199c 1abe 2574 50bf 3ae6 88be 99c5 b8bf
00000260: e947 16bf cf37 d6bf d8d1 a4be 0dff d1bf
00000270: ba69 9d3d c560 64be a166 8ebe 5951 41be
00000280: fa7f ba3d 85a0 b7bc 8abc 25be 323d 9e3d
00000290: 4c23 81bf 0791 7140 e14f 57c0 7520 273f
000002a0: 2542 01bf 93c4 a0bd 042e 73be c594 e83d
000002b0: 7460 463f 5eaa 36bf b78d ecbe 5a69 36be
000002c0: c73f 0b3e 1ac5 9b3e 669a bd3f 58c1 85bf
000002d0: 83c0 4ebf 2f04 a2bd ba02 813f 578c d43e
000002e0: 3eb4 cc3e d0cb b23b c950 96bc fd4d 213d
000002f0: d2a3 3bbe 0f17 9cbe 66c2 ccbe 1622 c7bf
00000300: bf37 1dbe 515e 9abe e89d 0cbf c177 02bf
00000310: 45ac dc3e ff29 193f 6703 14bd ec34 573f
00000320: ad08 edbe c109 5240 b7ce babf 7fe7 20bf
00000330: 02a5 043f 4f6c 683f 04bc cbbf ae06 cfbe
00000340: f985 b63e f01a 12bf 1657 9ebf 96c5 04bf
00000350: d68d 803f 3424 cc3c d7ac cf3e fd6d e2bb
00000360: 79c2 a23e a018 b63d d80e 393e 1b85 9d3e
00000370: d61a 94be 2089 b3be b31a b3be ec57 b1bf
00000380: b7d5 17bf e326 0c40 56a4 f83f 62a2 8abf
00000390: 1bb1 053f a984 b23e b6a8 f53e a5cf 4e3f
000003a0: f0fa af3f 6f25 8c3f 0e5b 843f da33 3fbf
000003b0: e108 2f3e 6c2f 633e c2e7 d3bf 7256 b3be
000003c0: 3e68 463f b3c8 653f e837 9cbf 710c 5d3f
000003d0: c951 003f 09ca 033f 781f 0fbe 6bd5 86bf
000003e0: a960 b7be b00c a63f fbe4 463f af64 8c3e
000003f0: 91d5 a73e dbb6 00bf 638c 1abf 9440 ba3f

l1.bias f4 [512]
-1.0127395 -0.9687298 0.018516574 -1.1722609 -0.64770675 -1.49495 -0.76358277 -1.1148491
-1.4577041 0.0740861 -0.26134786 -0.9830161 -0.48500782 -0.40525603 -1.592405 -0.8457901
-0.744696 -0.953375 -1.5647136 -1.261832 0.036941346 -0.8721894 -1.2943387 -1.4075149
-0.5007999 -0.46407753 -0.7375352 -0.49518678 -1.3402961 -1.4554718 -1.7984539 -1.3335083
-0.793943 -0.13787128 -1.357444 -1.275946 -1.5718331 -0.23122524 -1.0701994 -1.8979275
-0.4439033 -1.4891955 -1.4107664 -0.13632575 -0.8438483 -0.62095505 -1.0349923 -1.5293581
-0.8076467 -0.95607495 -1.0380682 -0.11730717 -0.43560117 -1.501121 -1.0992239 -1.3232815
-0.16863622 -1.0269985 -1.5687112 -1.4038888 -1.4639865 -1.1578683 -1.2840185 -1.2532095
-0.40403894 -1.7636286 -0.9510971 -1.0960011 -0.41777524 -0.90498143 -0.015858851 -1.0882927
-0.56834173 -0.18320692 -1.2184725 -0.7158776 -1.6918774 -0.6596451 -1.2826421 -0.5762026
-0.8023157 -0.64628345 -0.6460324 -0.7568466 -1.2186873 -1.1897722 -1.4413522 -0.89287364
-1.0165651 -0.3988312 0.13194905 -0.3463673 -1.2001362 -0.7392598 -0.9559817 -1.4579383
-1.2929816 -0.95774084 -0.56901175 -0.6993473 -1.9250177 -0.9897976 -0.88812107 -1.2405928
-1.1779615 -0.70483446 -0.83456415 -1.0404545 -0.37997094 -0.5914805 -0.8185155 -0.69918305
-1.0036952 -0.8490886 -1.5017151 -1.1454741 -1.4740653 -0.8828562 -1.7404617 -1.4845312
-0.6877023 -0.428993 0.55738896 -1.5411193 -0.6103553 -1.2600067 -0.69900125 -0.55808353
-1.0182275 -1.2603872 -1.4117999 -1.6436374 -0.32726696 -1.3465093 -0.45566976 -1.032598
-0.19657294 -1.2600675 -1.0953878 0.3554437 -0.88660115 -1.0998286 -1.164789 -0.7913038
-0.84152615 -1.3938094 -0.5285761 -1.418875 -0.5148421 -1.2233273 -1.5406302 -0.7253969
-0.87798643 -0.47538432 -0.6446959 -1.2189627 -0.15921678 -1.5608476 -0.6588707 -0.5303093
-0.69132704 -1.4343766 0.24078326 -1.2322041 -0.48233286 -0.7392822 -0.9503587 -0.7359649
-0.6572071 -0.92081225 -0.6704691 -1.3610183 -1.8230866 -1.2158626 -1.3895569 -1.4010608
-1.104411 -1.6580215 -0.7433145 -0.57079434 0.23077148 -0.58316565 -1.0575105 -0.99828404
-0.27911824 -1.2316043 -0.19873588 -0.22060575 -1.1131542 -0.63501847 -1.138774 -1.0391294
-1.0180739 -0.8550719 -0.5093473 -1.023524 -0.5625203 -0.7509057 0.10302163 -0.111283556
-0.8311836 -0.9357507 -0.978684 -0.79760283 -0.96391535 -0.46295598 -0.7566125 -1.099932
-0.60102725 -1.5523565 -0.4663085 -1.3637519 -0.65410775 -0.814496 -0.8878197 -0.36137602
0.68755716 -0.7815909 -0.2794745 -0.5764268 -1.38704 -0.8536626 -1.114568 -0.33196804
-1.9694644 -1.0119404 -1.0847833 -1.0161341 -0.7863353 -1.131081 -0.5068308 -1.5970742
-1.006269 -0.015370673 -0.84910446 -0.6136813 -1.0193977 -1.2134598 -0.12995811 -0.6977372
-0.98559284 -1.3196219 -1.2874577 -1.2665751 -0.42598733 -1.2046009 -0.730492 -0.7247914
-0.18596363 -0.7900615 -0.00913751 -0.7854262 -1.6895684 -1.1169105 -0.8588828 -1.1202172
00000000: 73a1 81bf adfe 77bf 12b0 973c a50c 96bf
00000010: 1cd0 25bf 865a bfbf 297a 43bf 60b3 8ebf
00000020: 0c96 babf 74ba 973d 63cf 85be f1a6 7bbf
00000030: f252 f8be b87d cfbe edd3 cbbf b385 58bf
00000040: 66a4 3ebf 6210 74bf 8948 c8bf b683 a1bf
00000050: cf4f 173d ce47 5fbf e4ac a5bf 7329 b4bf
00000060: 6c34 00bf 929b edbe 1bcf 3cbf 1f89 fdbe
00000070: d38e abbf e64c babf bd33 e6bf 66b0 aabf
00000080: d93f 4bbf 212e 0dbe bac0 adbf 3352 a3bf
00000090: d431 c9bf 4fc6 6cbe 4bfc 88bf 4aef f2bf
000000a0: 4b47 e3be f59d bebf fe93 b4bf fa98 0bbe
000000b0: 7106 58bf e9f6 1ebf a17a 84bf 02c2 c3bf
000000c0: efc1 4ebf 54c1 74bf 6bdf 84bf be3e f0bd
000000d0: 1e07 dfbe bc24 c0bf 5eb3 8cbf 4a61 a9bf
000000e0: f9ae 2cbe b074 83bf 87cb c8bf a1b2 b3bf
000000f0: e963 bbbf 0735 94bf b85a a4bf 2b69 a0bf
00000100: 31de cebe 95be e1bf 197b 73bf c449 8cbf
00000110: a3e6 d5be ddac 67bf 6cea 81bc 2d4d 8bbf
00000120: d87e 11bf 989a 3bbe e8f6 9bbf c143 37bf
00000130: 708f d8bf 80de 28bf 9e2d a4bf 0382 13bf
00000140: 9064 4dbf d572 25bf 6162 25bf b3c0 41bf
00000150: f2fd 9bbf 754a 98bf 3b7e b8bf 5e93 64bf
00000160: ce1e 82bf 9a33 ccbe a71d 073e 0e57 b1be
00000170: 109e 99bf 2140 3dbf 37bb 74bf b99d babf
00000180: 6c80 a5bf 812e 75bf c1aa 11bf 6d08 33bf
00000190: fb66 f6bf 6063 7dbf e75b 63bf bfcb 9ebf
000001a0: 71c7 96bf 0870 34bf ffa5 55bf 9d2d 85bf
000001b0: 8d8b c2be 446b 17bf 3b8a 51bf a9fd 32bf
000001c0: 1679 80bf df5d 59bf 3338 c0bf e59e 92bf
000001d0: 2cae bcbf dd02 62bf 73c7 debf 1e05 bebf
000001e0: 420d 30bf f8a4 dbbe 0bb1 0e3f 6643 c5bf
000001f0: 3f40 1cbf e647 a1bf bff1 32bf 90de 0ebf
00000200: 4755 82bf 5e54 a1bf dcb5 b4bf b662 d2bf
00000210: 898f a7be 6b5a acbf 8c4d e9be 2c2c 84bf
00000220: 6b4a 49be e449 a1bf ab35 8cbf b7fc b53e
00000230: 4bf8 62bf 2fc7 8cbf ce17 95bf e392 4abf
00000240: 426e 57bf 5968 b2bf c350 07bf b29d b5bf
00000250: b1cc 03bf fd95 9cbf 5f33 c5bf 9cb3 39bf
00000260: b8c3 60bf 9365 f3be ca0a 25bf f806 9cbf
00000270: b909 23be dbc9 c7bf c0ab 28bf 5ac2 07bf
00000280: cffa 30bf a799 b7bf e38f 763e ddb8 9dbf
00000290: 55f4 f6be 9941 3dbf b54a 73bf 3268 3cbf
000002a0: b93e 28bf 5aba 6bbf dda3 2bbf d935 aebf
000002b0: e75a e9bf 63a1 9bbf 00dd b1bf f655 b3bf
000002c0: 575d 8dbf 0c3a d4bf dc49 3ebf 941f 12bf
000002d0: 5c4f 6c3e 584a 15bf 815c 87bf 8b8f 7fbf
000002e0: 96e8 8ebe 36a5 9dbf 6b81 4bbe 79e6 61be
000002f0: d67b 8ebf 9290 22bf 59c3 91bf 3102 85bf
00000300: 3f50 82bf fee5 5abf 9664 02bf d602 83bf
00000310: 5501 10bf 5b3b 40bf 01fd d23d a2e8 e3bd
00000320: 73c8 54bf 5c8d 6fbf 098b 7abf b32f 4cbf
00000330: 28c3 76bf 9108 edbe 5bb1 41bf 92ca 8cbf
00000340: ecdc 19bf 9eb3 c6bf fdbf eebe 6c8f aebf
00000350: 9b73 27bf cf82 50bf 2748 63bf 4706 b9be
00000360: bf03 303f 5716 48bf 4817 8fbe b590 13bf
00000370: 878a b1bf a289 5abf 2aaa 8ebf b7f7 a9be
00000380: 6917 fcbf 4387 81bf 2eda 8abf af10 82bf
00000390: 454d 49bf 43c7 90bf aabf 01bf ed6c ccbf
000003a0: 6ccd 80bf 46d5 7bbc e95e 59bf 381a 1dbf
000003b0: a07b 82bf a752 9bbf bd13 05be e89e 32bf
000003c0: d04f 7cbf 5fe9 a8bf 6acb a4bf 221f a2bf
000003d0: 031b dabe 5d30 9abf 8601 3bbf ee8b 39bf
000003e0: 406d 3ebe 7841 4abf 7fb5 15bc b111 49bf
000003f0: c743 d8bf ecf6 8ebf bedf 5bbf 4763 8fbf

l2.weight f4 [256, 512]
-0.14249429 0.08972948 0.21171379 -0.034538228 -0.0014607582 0.057893544 0.04582604 -0.09970016
-0.10042562 -0.09153788 -0.12683776 -0.10790409 -0.2233882 0.08911309 -0.07055362 -0.102553524
0.065482385 0.14865579 0.027694426 -0.18543649 0.3417529 -0.12611672 -0.024455654 -0.11322329
-0.09659974 -0.025435666 0.41016123 0.0029817186 -0.085583545 -0.028950758 -0.16425253 -0.11205929
-0.13744138 0.044857997 0.20512812 0.19133782 0.033903245 -0.05132528 -0.19778113 0.008833213
0.019337581 0.03343512 -0.07435891 -0.15930864 -0.15651186 -0.1433137 -0.11301266 -0.058650818
-0.25061497 0.11827829 -0.022395195 0.06864386 0.35011572 -0.17742041 0.047569174 -0.22015435
-0.14206219 -0.03359985 0.07957342 -0.07773377 -0.1488337 0.29469186 0.06608982 0.14031328
-0.27638125 -0.07030838 0.18877868 0.0409046 -0.020312201 0.23624219 -0.031199565 -0.116703354
0.24610966 0.42024657 -0.24597031 0.25192595 -0.009861723 -0.2595836 -0.09561895 -0.18240729
-0.069997855 0.11603665 -0.028243117 0.044009358 -0.19526 -0.07873159 0.07920308 -0.19559932
-0.10124529 0.111932136 0.0083923815 0.09290041 -0.29092348 -0.1636573 -0.2585575 0.0047980538
-0.1374595 0.03586565 -0.022799285 0.31769523 -0.028869 -0.25507626 0.0647353 -0.22156936
-0.12798694 -0.08785379 0.08174525 0.051586885 0.1015887 -0.4207805 0.0067902044 0.3197503
0.24337435 0.027311984 -0.41224614 0.11599903 -0.36760858 -0.555696 -0.005992765 -0.032958318
0.06328832 -0.15177827 -0.10591862 0.0046013794 0.25341305 -0.05343225 -0.22030006 -0.056610562
0.046878353 -0.07176723 -0.14627942 0.0858442 0.49773523 -0.13643542 -0.10846237 0.015230601
0.2881025 -0.018212419 -0.22288688 0.24260779 -0.13406718 -0.22231615 -0.36997285 -0.2542082
0.17914209 0.069218814 -0.61176 0.005010136 -0.051956527 -0.11282281 -0.037813693 -0.2514982
-0.08480692 0.4379806 -0.21744093 -0.11183689 -0.034618802 -0.225006 -0.061504032 -0.16692334
-0.32978627 -0.05209015 -0.49445742 -0.15598321 -0.028155934 -0.1261628 -0.2905636 -0.13838238
-0.17236577 0.0013416021 -0.16492778 -0.22607106 -0.07819579 -0.30748636 -0.2219679 -0.09476818
0.36134288 -0.02525876 -0.34912264 0.008521058 -0.116018206 -0.1668126 0.1045201 0.19310793
-0.15568551 0.022065219 0.1869652 0.2102166 -0.12328954 -0.24152549 0.0023620538 -0.17576069
-0.21926668 -0.10676478 -0.47181195 -0.30168432 -0.06908167 -0.1523891 -0.14908165 -0.21366933
-0.20843285 -0.213819 0.05739106 0.14245118 0.029473597 0.06108356 0.19946824 -0.053561024
-0.49772146 -0.18413624 0.30007163 0.13110314 0.0651665 -0.101355925 0.2158587 -0.124647886
-0.15065888 0.2941099 -0.0758165 -0.1968255 -0.13499409 -0.1693296 -0.116617255 -0.06672884
0.016384048 -0.39516845 0.014606085 -0.07520266 0.033755705 -0.25273424 -0.26199785 -0.05934473
-0.10267888 -0.3052081 -0.1792653 -0.067844845 -0.19117023 -0.11189388 -0.35217434 -0.33220708
-0.16520552 -0.17698066 0.032684926 -0.054942127 -0.31496462 -0.10437625 -0.23921655 -0.2917124
-0.39956307 -0.15907265 0.13431118 -0.20869951 -0.06296757 0.26081324 0.27691644 -0.21042511
00000000: 06ea 11be 17c4 b73d 80cb 583e f577 0dbd
00000010: e976 bfba c821 6d3d 16b4 3b3d 992f ccbd
00000020: f3ab cdbd 3678 bbbd c2e1 01be d2fc dcbd
00000030: e0bf 64be ec80 b63d 6b7e 90bd 9507 d2bd
00000040: a11b 863d 3939 183e 6cdf e23c 10e3 3dbe
00000050: 3cfa ae3e be24 01be 3957 c8bc 9de1 e7bd
00000060: 16d6 c5bd 755e d0bc a700 d23e f068 433b
00000070: 6d46 afbd 242a edbc d131 28be 577f e5bd
00000080: 6fbd 0cbe 05bd 373d 1b0d 523e 10ee 433e
00000090: 21de 0a3d 753a 52bd 2387 4abe 2eb9 103c
000000a0: d969 9e3c 44f3 083d 7c49 98bd ce21 23be
000000b0: a544 20be d4c0 12be 2e73 e7bd d73b 70bd
000000c0: 9b50 80be e33b f23d 2176 b7bc 2795 8c3d
000000d0: 5e42 b33e b2ad 35be e5d7 423d 2470 61be
000000e0: c078 11be ff9f 09bd 64f7 a23d e232 9fbd
000000f0: dd67 18be dae1 963e 195a 873d 49ae 0f3e
00000100: d881 8dbe d7fd 8fbd 334f 413e 958b 273d
00000110: c665 a6bc 79e9 713e 3b96 ffbc 2b02 efbd
00000120: 2c04 7c3e 8f2a d73e a4df 7bbe 70fc 803e
00000130: 1093 21bc 24e8 84be ded3 c3bd fac8 3abe
00000140: 095b 8fbd a0a4 ed3d 1c5e e7bc 2843 343d
00000150: 3df2 47be 073e a1bd 3935 a23d 304b 48be
00000160: b159 cfbd ad3c e53d 3380 093c 9242 be3d
00000170: ecf3 94be c795 27be a661 84be fe38 9d3b
00000180: 2fc2 0cbe dce7 123d 91c5 babc f3a8 a23e
00000190: ae7e ecbc 5b99 82be f193 843d 14e3 62be
000001a0: 020f 03be b0ec b3bd 0e6a a73d c54c 533d
000001b0: bd0d d03d 8b70 d7be 5d80 de3b 50b6 a33e
000001c0: 2037 793e 62bd df3c ed11 d3be e690 ed3d
000001d0: 3137 bcbe 1842 0ebf f55e c4bb 4dff 06bd
000001e0: 4f9d 813d c36b 1bbe ddeb d8bd 2bc7 963b
000001f0: 5bbf 813e c6db 5abd 5796 61be 7ae0 67bd
00000200: 8403 403d b3fa 92bd 46ca 15be 15cf af3d
00000210: 27d7 fe3e bab5 0bbe 8521 debd c589 793c
00000220: 2c82 933e 3632 95bc 753c 64be 2d6e 783e
00000230: e848 09be d8a6 63be 156d bdbe 9427 82be
00000240: 0671 373e 98c2 8d3d 4e9c 1cbf 112c a43b
00000250: 5ed0 54bd a50f e7bd 88e2 1abd 5fc4 80be
00000260: 40af adbd fe3e e03e d6a8 5ebe bd0a e5bd
00000270: 72cc 0dbd f967 66be a7eb 7bbd f4ed 2abe
00000280: bfd9 a8be 7b5c 55bd 8629 fdbe 10ba 1fbe
00000290: 46a7 e6bc d230 01be c1c4 94be 1cb4 0dbe
000002a0: a780 30be b2d8 af3a d4e2 28be 2c7f 67be
000002b0: 1d25 a0bd da6e 9dbe 8e4b 63be d215 c2bd
000002c0: ef01 b93e 76eb cebc 34c0 b2be e89b 0b3c
000002d0: f49a edbd ecd0 2abe a20e d63d 16be 453e
000002e0: 066c 1fbe 1ec2 b43c ce73 3f3e 0543 573e
000002f0: 3a7f fcbd 7552 77be b0cc 1a3b 9cfa 33be
00000300: 7287 60be 7ea7 dabd 5691 f1be 5e76 9abe
00000310: b17a 8dbd e30b 1cbe dca8 18be 22cc 5abe
00000320: 6c6f 55be 5ef3 5abe e312 6b3d b9de 113e
00000330: 9d72 f13c c132 7a3d 6741 4c3e ce62 5bbd
00000340: 59d5 febe 368e 3cbe fda2 993e e73f 063e
00000350: 0476 853d b293 cfbd 100a 5d3e 6447 ffbd
00000360: 5246 1abe 9395 963e ae45 9bbd a08c 49be
00000370: e43b 0abe bd64 2dbe 07d5 eebd 21a9 88bd
00000380: d737 863c 8553 cabe 5c4e 6f3c da03 9abd
00000390: 6c43 0a3d 6266 81be 9524 86be 7613 73bd
000003a0: 4e49 d2bd 3c44 9cbe 5391 37be 3df2 8abd
000003b0: 21c2 43be 9e28 e5bd 3250 b4be 0c17 aabe
000003c0: a32b 29be 6b3a 35be a1e0 053d ff0a 61bd
000003d0: 0b43 a1be 37c3 d5bd 2ff5 74be 545b 95be
000003e0: 8893 ccbe f1e3 22be df88 093e 53b5 55be
000003f0: 24f5 80bd 5089 853e fec7 8d3e ae79 57be

l2.bias f4 [256]
-0.07007872 -1.3608222 0.9544144 0.51704186 -0.3789533 -0.05929172 -0.06808031 0.067676224
-0.0858077 -0.0998555 -0.09734433 -0.03848674 -1.2604555 -0.07322928 -0.69622934 -0.0352013
-0.0708274 1.088243 -0.089588374 -0.08565874 -0.4724882 -1.0069044 -0.06182331 -0.12895659
-0.17114812 -0.025948 -0.32194296 -0.04071623 0.38274008 -0.27318692 0.93505776 -0.06265463
-0.08854176 0.32820767 0.013181231 -0.058180537 -0.077067316 -0.16372317 -0.07796001 -0.037726365
-0.048053775 0.39650992 -0.0826818 -0.03236069 1.0942953 -0.76851803 -0.084037066 0.3038372
-0.10628588 -0.049841225 -0.2302608 -0.05059676 -0.10864144 -0.116868064 -0.32036114 -0.08658778
0.014181828 -0.0763016 1.7241281 -0.19757318 0.024500104 -0.07840345 -0.087365106 -0.09335602
-0.08465985 -0.06363996 -0.057110164 0.44077286 0.39339072 -0.051476207 -0.09565889 -0.063734815
-0.7396482 -0.050813816 -0.034733925 -0.10996797 -0.074356355 -0.14336906 -0.23889898 -0.07408099
-0.12286818 0.75888467 -0.7871075 -0.19578248 -0.07035223 -0.02850216 -0.07772675 0.30470186
-1.2959924 -0.05208465 -0.32396486 -0.11711441 -0.079330586 -0.492839 -0.19435588 -0.22236274
-0.18479382 0.9751017 -0.017495098 -0.045062486 -0.027047023 -0.18769178 -0.07169099 -0.06696793
-0.07872586 1.996195 -0.06290123 -0.06568267 -0.03690261 -0.12560606 0.6027338 -0.6630433
-0.10963119 -0.030352484 -0.08538183 -0.13894917 -0.058687933 -0.07023714 -0.061763305 -0.10745404
-0.101080455 0.03709775 -0.065422595 0.34085765 -0.6620675 -0.04470831 0.253775 -1.9435252
-0.121719636 -0.05834439 -0.6686766 0.09065323 -0.12623428 0.09731838 1.640378 -0.0917488
-0.15813951 -0.051743627 -0.09985047 -0.054675356 -0.044583414 -0.09487642 0.0078630345 1.0085824
-0.038199525 1.3709315 0.06738321 0.5592183 -0.046657525 -0.057856925 0.4976601 0.33164397
0.7877281 -0.015501506 -0.0751431 -0.64149946 -0.05207923 1.0354601 1.6927559 -0.14246546
-0.04415951 -0.79271257 -0.71591127 -0.052100785 -0.11421642 -0.42653748 0.510262 -0.087029725
0.7183324 -0.08762481 -0.07513869 -0.12743819 -0.030918963 -1.0457735 -0.07495959 -0.091679096
-0.109833665 -0.11073896 -0.047801662 0.4701474 -1.060134 -0.12329002 -0.7252559 -0.2997259
-0.083748356 -0.28940883 -0.027384777 1.7525607 -0.07452155 -0.05327277 -0.4172972 -0.0840045
0.99214715 -0.07054558 -0.03235972 -0.06751864 0.4171893 -1.2457222 0.48372322 0.82255054
-0.08699284 -0.054041486 -0.04770812 0.123422645 -0.44559947 -0.059181366 -0.5267713 -0.109789215
-0.07357826 -0.091222115 0.16548333 -0.049984682 -0.030740323 1.5456825 -1.0026648 -0.07737533
0.2304514 -0.15455651 -0.0079077855 0.43389496 -1.1539446 0.1918059 -0.11208827 -0.12233167
0.27284446 -0.11022346 -1.213586 -0.09311081 -0.68898624 -0.054902866 -0.04338384 0.21866544
-0.074398614 0.061416987 -0.07819298 0.5856829 -0.07826465 -0.08813227 -0.30168268 -0.059279203
-0.33489054 -0.072500475 0.2543202 -0.123699166 -0.07976212 -0.10389129 -0.7954134 -0.16034743
0.7947707 0.33401242 1.3246328 -1.3557942 0.76622194 0.003960738 -0.04663 -0.061324593
00000000: 6f85 8fbd 6c2f aebf 8154 743f db5c 043f
00000010: 2b06 c2be e0db 72bd b16d 8bbd d599 8a3d
00000020: f3bb afbd 0a81 ccbd 775c c7bd 46a4 1dbd
00000030: 9b56 a1bf 3cf9 95bd 163c 32bf 3d2f 10bd
00000040: f50d 91bd 8c4b 8b3f 1c7a b7bd d96d afbd
00000050: f9e9 f1be 3ee2 80bf 703a 7dbd 320d 04be
00000060: 7441 2fbe e690 d4bc b5d5 a4be 10c6 26bd
00000070: 82f6 c33e 28df 8bbe f25f 6f3f 1251 80bd
00000080: 6255 b5bd d60a a83e 17f6 573c b74e 6ebd
00000090: 78d5 9dbd 0ca7 27be 7fa9 9fbd f686 1abd
000000a0: 09d4 44bd 5903 cb3e 1355 a9bd a58c 04bd
000000b0: de11 8c3f 99bd 44bf a01b acbd 8d90 9b3e
000000c0: 69ac d9bd 5026 4cbd 7dc9 6bbe 8c3e 4fbd
000000d0: 677f debd 8658 efbd 6006 a4be ef54 b1bd
000000e0: e65a 683c 0344 9cbd 3bb0 dc3f a050 4abe
000000f0: 71b4 c83c fd91 a0bd 7aec b2bd 7131 bfbd
00000100: 2562 adbd ab55 82bd 59ec 69bd fbac e13e
00000110: 826a c93e b7d8 52bd cfe8 c3bd 6687 82bd
00000120: 9659 3dbf 2622 50bd 2945 0ebd e336 e1bd
00000130: 2548 98bd 57cf 12be efa1 74be c6b7 97bd
00000140: 50a2 fbbd 4446 423f e17f 49bf 347b 48be
00000150: d414 90bd 5d7d e9bc 342f 9fbd e201 9c3e
00000160: 14e3 a5bf b756 55bd b9de a5be aed9 efbd
00000170: 1378 a2bd 6555 fcbe 3a05 47be 0fb3 63be
00000180: 973a 3dbe 44a0 793f e151 8fbc 7193 38bd
00000190: b891 ddbc 4632 40be bad2 92bd 7b26 89bd
000001a0: 063b a1bd 5183 ff3f 5cd2 80bd a384 86bd
000001b0: 3127 17bd e09e 00be c34c 1a3f 35bd 29bf
000001c0: 5186 e0bd c6a5 f8bc abdc aebd b148 0ebe
000001d0: c262 70bd 7dd8 8fbd 85fb 7cbd dd10 dcbd
000001e0: 4503 cfbd cff3 173d 48fc 85bd e584 ae3e
000001f0: 417d 29bf 1020 37bd ccee 813e 6fc5 f8bf
00000200: 2548 f9bd 87fa 6ebd 642e 2bbf 67a8 b93d
00000210: 8f43 01be dc4e c73d e8f7 d13f cbe6 bbbd
00000220: 53ef 21be 20f1 53bd 677e ccbd 44f3 5fbd
00000230: 199d 36bd 924e c2bd f5d3 003c 3a19 813f
00000240: 1b77 1cbd af7a af3f 3500 8a3d ee28 0f3f
00000250: f61b 3fbd 62fb 6cbd 4ecd fe3e 3dcd a93e
00000260: 8ca8 493f 07fa 7dbc a0e4 99bd 4f39 24bf
00000270: 0851 55bd f589 843f 3aac d83f 77e2 11be
00000280: 9ae0 34bd 36ef 4abf f645 37bf a267 55bd
00000290: 4cea e9bd 1f63 dabe 88a0 023f a43c b2bd
000002a0: a2e4 373f a374 b3bd 50e2 99bd 287f 02be
000002b0: c449 fdbc e8db 85bf 6a84 99bd 40c2 bbbd
000002c0: 79f0 e0bd 1ccb e2bd adcb 43bd 29b7 f03e
000002d0: 79b2 87bf 7a7f fcbd 5faa 39bf ac75 99be
000002e0: 4284 abbd 652d 94be 0a56 e0bc e953 e03f
000002f0: c19e 98bd 8c34 5abd fba7 d5be 8d0a acbd
00000300: 5bfd 7d3f 337a 90bd a08b 04bd 3647 8abd
00000310: d699 d53e d373 9fbf 92aa f73e ac92 523f
00000320: 4d29 b2bd 9b5a 5dbd 9769 43bd 03c5 fc3d
00000330: 9d25 e4be 2968 72bd 7cda 06bf 2bd9 e0bd
00000340: 33b0 96bd a9d2 babd 7674 293e bdbc 4cbd
00000350: 21d3 fbbc edd8 c53f 5257 80bf f576 9ebd
00000360: 74fb 6b3e 1044 1ebe a88f 01bc 7b27 de3e
00000370: 75b4 93bf c468 443e 898e e5bd 0789 fabd
00000380: 45b2 8b3e d6bc e1bd c956 9bbf e1b0 bebd
00000390: 6761 30bf d4e1 60bd 41b3 31bd d5e9 5f3e
000003a0: 4d5e 98bd 6190 7b3d a423 a0bd 51ef 153f
000003b0: 3849 a0bd b17e b4bd 2776 9abe c0ce 72bd
000003c0: c676 abbe 217b 94bd 4236 823e fd55 fdbd
000003d0: 535a a3bd f5c4 d4bd 36a0 4bbf 1e32 24be
000003e0: 1876 4b3f ad03 ab3e 918d a93f aa8a adbf
000003f0: 1f27 443f 14c9 813b 19ff 3ebd 7f2f 7bbd

l3.weight f4 [256, 256]
0.14899437 -0.59428483 -0.09600004 0.9596785 0.17520307 0.040706962 -0.04352176 -0.22293212
-0.037297323 -0.042047847 0.44324374 0.063919984 0.27588466 -0.03364579 -0.07523325 0.045814082
0.001440091 0.30832067 -0.06635734 -0.011314648 0.6544458 0.2561519 0.032905433 -1.1386322
0.1121755 0.02218273 0.08159176 -0.049677078 -0.29334754 -0.44996712 -2.4515624 0.024055688
0.056363184 -0.30179223 -1.4257652 0.0027599542 -0.017525133 -0.2649576 -0.0022669653 0.039018154
-0.11214008 -1.0776273 -0.23639049 0.029536862 -0.6456171 -0.66953856 0.0583415 -0.8504154
0.08309745 0.035961196 -0.47648072 0.038775552 0.76570576 0.41092974 -0.18397662 0.044492085
0.006724604 0.0061738174 0.20913492 0.104549654 0.04539711 0.012349943 0.011798599 0.014741122
-0.008424622 0.093679436 -0.06847754 -2.0423477 -0.2319474 0.051412497 0.074468024 0.03869142
-0.03992475 0.06674621 0.082617626 -0.036988873 -0.060066562 0.118070185 0.19761528 -0.036524273
-0.10531728 1.3815309 -0.11070264 -0.108660564 -0.024291595 0.050407916 0.025133586 0.549791
1.2608885 0.03457725 -0.61773497 0.021516668 0.044369098 0.7001794 0.40985122 0.5448632
0.07368866 1.549843 0.0078923 -0.009113979 0.010721878 -0.5736364 0.00023589408 -0.05904164
0.09845633 0.25391886 0.013471538 -0.06637129 0.054204326 -0.077731416 0.2556655 0.18144248
0.023009816 -0.054436292 -0.00018043294 -0.015331578 0.021747105 -0.0334134 -0.06463136 -0.021088125
-0.0072455127 -0.4710867 0.04721689 -0.26913983 0.521748 0.22966705 1.0376978 -0.08015752
-0.105379745 -0.022473842 -0.8832037 0.21610667 0.041256316 0.41947857 0.0010392283 -0.04775439
-0.12770624 1.3276825 0.08361883 -0.076021984 -0.032714937 -0.003388376 -0.21395703 -0.5197795
0.0049009933 -1.1814095 -1.5956377 -0.9848563 0.032797996 -0.04720096 -0.014879615 -0.009924373
-0.09726977 -0.067846954 -0.021899313 -0.25069252 0.050264366 0.027109323 -0.08139176 -1.097134
0.048059896 -1.8559201 0.17405364 -0.00570855 -0.07643965 0.38715404 -0.39499274 -0.08741135
0.20414089 -0.061003115 0.033979554 0.019868305 -0.037766073 0.08986661 0.032982662 0.041863244
0.028245557 -0.19720173 0.031993024 0.091642104 -1.6006607 -0.08124464 0.17737074 0.2295797
-0.371232 -0.35802293 -0.02481727 0.060396496 -0.07021457 0.05586311 -0.7299815 -0.040796574
-0.16191968 -0.04727308 -0.10696504 -0.072875634 -0.13713712 -0.4048656 0.5005379 -0.19819658
0.022976713 -0.03303915 -0.012894376 -0.87177944 -0.36557013 0.016463483 -1.0751051 -0.008650524
-0.048133336 0.023515495 -1.1041144 0.036666088 0.034336686 1.366859 0.15192285 -0.046105776
-0.9161834 -0.13089028 -0.032880288 0.3617836 -0.7549875 0.6742441 -0.11450379 -0.48196825
0.36838087 0.035438243 -0.14067023 -0.09203862 -0.07182865 -0.0054587987 -0.009671472 1.6332467
0.075564764 -0.89227897 -0.049909744 -1.3618915 -0.037635773 -0.05893655 -0.131074 0.056632236
0.87482816 0.029863585 -0.44384784 0.009863609 -0.013627141 -0.023323372 -1.0874155 -0.043682348
0.57961017 -0.47592494 -0.017820034 -0.8218036 -0.047840513 0.5752193 0.055466894 0.0025788748
00000000: fb91 183e 0d23 18bf ab9b c4bd 7dad 753f
00000010: 6f68 333e 58bc 263d df43 32bd 5148 64be
00000020: 14c5 18bd 5d3a 2cbd d8f0 e23e 7be8 823d
00000030: c140 8d3e 2bd0 09bd e413 9abd 8ca7 3b3d
00000040: 6fc1 bc3a 35dc 9d3e 5be6 87bd 1361 39bc
00000050: c389 273f 5826 833e d9c7 063d b3be 91bf
00000060: 45bc e53d 8eb8 b53c 9519 a73d 317a 4bbd
00000070: a631 96be 1762 e6be 66e6 1cc0 6f10 c53c
00000080: 15dd 663d 8384 9abe 797f b6bf 59e0 343b
00000090: de90 8fbc 86a8 87be 5e91 14bb 80d1 1f3d
000000a0: b3a9 e5bd b1ef 89bf 5910 72be 4af7 f13c
000000b0: 2a47 25bf e166 2bbf 7ff7 6e3d d3b4 59bf
000000c0: ff2e aa3d 0c4c 133d 48f5 f3be 1dd3 1e3d
000000d0: 4b05 443f 6265 d23e 5e64 3cbe 553d 363d
000000e0: 115a dc3b bc4d ca3b 7727 563e 211e d63d
000000f0: 52f2 393d 6a57 4a3c e94e 413c bf84 713c
00000100: 6d07 0abc 01db bf3d f43d 8cbd d3b5 02c0
00000110: 9f83 6dbe e995 523d b182 983d e57a 1e3d
00000120: 2288 23bd 3db2 883d 6e33 a93d a581 17bd
00000130: 5b08 76bd c8ce f13d a95b 4a3e 7a9a 15bd
00000140: 96b0 d7bd 01d6 b03f 11b8 e2bd 6e89 debd
00000150: 2bff c6bc 8878 4e3d f3e4 cd3c 1abf 0c3f
00000160: cb64 a13f e0a0 0d3d e123 1ebf b943 b03c
00000170: 5fbc 353d f53e 333f 05d8 d13e 287c 0b3f
00000180: 15ea 963d 4161 c63f b54e 013c cc52 15bc
00000190: d1aa 2f3c d6d9 12bf 565a 7739 a6d5 71bd
000001a0: 79a3 c93d a701 823e bab7 5c3c aced 87bd
000001b0: 5b05 5e3d a631 9fbd 97e6 823e 0fcc 393e
000001c0: 157f bc3c 97f8 5ebd 9932 3db9 4d31 7bbc
000001d0: fc26 b23c 7ddc 08bd 725d 84bd 01c1 acbc
000001e0: c46b edbb 4732 f1be 7f66 413d b2cc 89be
000001f0: 4791 053f d72d 6b3e 48d3 843f a029 a4bd
00000200: 56d1 d7bd 101b b8bc a319 62bf 114b 5d3e
00000210: 62fc 283d e5c5 d63e b736 883a 1b9a 43bd
00000220: 6dc5 02be 80f1 a93f 5940 ab3d 6ab1 9bbd
00000230: 1900 06bd 840f 5ebb 8d17 5bbe 4510 05bf
00000240: 8398 a03b 6d38 97bf db3d ccbf 8b1f 7cbf
00000250: 3157 063d cb55 41bd a1c9 73bc d699 22bc
00000260: 6035 c7bd 58f3 8abd 3066 b3bc c55a 80be
00000270: 02e2 4d3d 5f14 de3c b9b0 a6bd e36e 8cbf
00000280: 74da 443d ca8e edbf 1e3b 323e ca0e bbbb
00000290: 648c 9cbd 0e39 c63e 7d3c cabe b904 b3bd
000002a0: 4f0a 513e 67de 79bd 252e 0b3d dbc2 a23c
000002b0: 99b0 1abd fc0b b83d d418 073d cb78 2b3d
000002c0: 3a63 e73c 40ef 49be 1e0b 033d dbae bb3d
000002d0: 73e2 ccbf 9763 a6bd ada0 353e f116 6b3e
000002e0: 1f12 bebe c84e b7be 964d cbbc 5162 773d
000002f0: a8cc 8fbd b7d0 643d 11e0 3abf 4f1a 27bd
00000300: 46ce 25be 6ba1 41bd 7d10 dbbd d23f 95bd
00000310: ac6d 0cbe 8b4a cfbe 4023 003f 0bf4 4abe
00000320: a939 bc3c 0f54 07bd ef42 53bc f02c 5fbf
00000330: 022c bbbe 6dde 863c 0b9d 89bf edba 0dbc
00000340: 7627 45bd 91a3 c03c 9f53 8dbf 2e2f 163d
00000350: a0a4 0c3d 3cf5 ae3f aa91 1b3e 69d9 3cbd
00000360: ff8a 6abf 1a08 06be 7bad 06bd b33b b93e
00000370: dc46 41bf 439b 2c3f f780 eabd 8bc4 f6be
00000380: 6b9c bc3e b127 113d db0b 10be be7e bcbd
00000390: e61a 93bd b9df b2bb 1875 1ebc 3a0e d13f
000003a0: b3c1 9a3d 656c 64bf 296e 4cbd 7652 aebf
000003b0: f827 1abd 7467 71bd 4338 06be 34f7 673d
000003c0: bdf4 5f3f 7aa4 f43c 0640 e3be fa9a 213c
000003d0: 5f44 5fbc a810 bfbc 6e30 8bbf 43ec 32bd
000003e0: 5561 143f 6fac f3be 52fb 91bc b961 52bf
000003f0: 6af4 43bd 9241 133f 4131 633d 5702 293b

l3.bias f4 [256]
0.5969871 -0.9213603 0.78693354 -0.69898736 -0.11775554 0.5321389 -0.18774612 -1.0561854
-0.24742386 0.4912778 -0.11487601 0.5542156 -0.3481394 0.22356278 0.16674261 -0.23761483
-0.20265794 -0.44904262 -0.70434695 -0.71643955 0.64910847 -0.74787194 1.0502459 -0.14857659
-0.38869703 -0.85538775 -0.18887927 -0.6907991 0.071340226 0.8674001 0.16810815 -0.35662583
-0.46805704 -0.4263195 0.2362402 -0.30299363 -0.28066 0.20707351 -0.30674723 -0.9601839
-0.55240005 -0.5714168 -0.91310865 -0.6342883 -1.0013579 -0.9485478 0.70528984 0.38743338
-0.22327018 -0.323627 0.14301543 0.49215534 -0.7093613 -0.48185763 -0.19338544 0.18402024
0.3733446 -0.15127239 2.0683808 -0.19007953 -1.6852664 -0.61153156 -0.59505373 -0.15072225
0.09798593 1.2169183 -0.1899971 -0.026341282 -1.1951509 -0.1392723 -0.5602672 -0.027617168
-0.20096274 -0.23338772 0.7284749 -0.11271962 -0.010995054 0.02510181 -0.35187054 0.45071906
-0.19806279 -0.5437463 -0.9229195 -0.4697419 -0.83442307 1.1815007 -0.16581364 -0.14036068
-0.14846876 0.04092868 0.17700233 0.2013744 -0.8795243 -0.1803535 0.85080475 -0.66300774
-0.24396197 -0.12495532 -0.098659225 0.26959866 -0.23400728 -0.5525696 -0.30669367 -0.18971196
0.42059278 -0.108410954 0.100507 0.4809242 1.2463695 0.26595032 0.19121654 -0.10336966
-0.042434134 -0.8858288 0.40548456 -0.058424037 -0.14724423 -0.19851346 -0.3959106 -0.24277782
-0.120838545 0.39230856 0.15107459 -0.14331818 -0.2985207 -0.27326897 -1.4867059 -0.1500021
0.09958833 0.20341204 -0.5398905 -1.283598 0.47822273 0.2583218 -0.43911964 -0.17040399
0.6059152 -0.19652468 0.49745402 -0.7981162 0.031158375 -0.18425886 -0.75635165 0.65079343
0.4311015 1.0630888 -0.050606336 0.6703999 -0.58266395 -0.1367345 -0.32611468 -0.09716019
-0.14791097 -1.3839629 -0.9358805 -0.1877717 -0.6755506 1.0712137 0.12305294 -0.3450098
0.72002566 -0.6905941 -0.47650242 -0.3694777 -0.12019585 -0.31028587 -0.23360129 -1.5121747
-0.21206163 1.277062 1.4812021 -0.3723155 -0.53809273 0.7137143 -0.163815 -0.1600172
0.67506987 -0.15413319 -0.40492436 0.06939831 -0.20674413 0.21063559 -0.69645864 0.3694289
-0.12777603 -1.0579118 -0.22302526 0.57243973 0.7274195 0.120824 -0.16242532 -0.122769736
0.52273166 -1.1109309 -0.40883908 -0.11165408 -1.3512543 -0.18418829 0.3797422 -0.17254372
1.0026914 -0.15003946 -0.05509052 -0.3089057 -0.3412634 -0.3364564 -0.28217968 0.3755054
-0.62518865 -0.71212417 -0.9501797 -0.3914102 -0.7173713 -0.06250913 -0.1681904 -0.1562651
-0.7816155 1.0127406 0.29679498 0.45804244 0.29118243 -0.16829522 -0.027647201 -1.128443
-0.10132871 0.812935 -0.16304955 -0.72389275 0.15259771 0.042829834 -0.3927364 0.32042804
-0.3627472 0.1686618 -0.11312059 -0.28325173 -0.6029799 -0.27410433 0.09768067 -0.14099298
0.3020238 -0.7337752 -0.34728065 -0.43982837 -0.17151488 -0.33102638 -0.54833156 -0.41346788
-0.4533869 -0.20071097 -0.7697046 0.4935848 0.9935204 0.38813475 0.26953956 -1.1612692
00000000: 26d4 183f 45de 6bbf 7a74 493f d6f0 32bf
00000010: d129 f1bd 413a 083f 8540 40be 1531 87bf
00000020: ae5c 7dbe c488 fb3e 1d44 ebbd 13e1 0d3f
00000030: 543f b2be a4ed 643e 93be 2a3e 4d51 73be
00000040: 9085 4fbe eae8 e5be 1550 34bf 9568 37bf
00000050: f92b 263f 8974 3fbf 756e 863f 7624 18be
00000060: 4c03 c7be b1fa 5abf 9169 41be 36d8 30bf
00000070: d31a 923d ef0d 5e3f 8b24 2c3e a997 b6be
00000080: 2ca5 efbe 8d46 dabe f3e8 713e fb21 9bbe
00000090: abb2 8fbe 140b 543e f90d 9dbe 9dce 75bf
000000a0: 176a 0dbf 5f48 12bf 7dc1 69bf b860 22bf
000000b0: 7f2c 80bf 07d4 72bf e08d 343f ab5d c63e
000000c0: f0a0 64be 70b2 a5be a372 123e c9fb fb3e
000000d0: b498 35bf 0bb6 f6be d506 46be cd6f 3c3e
000000e0: 0627 bf3e 26e7 1abe 5a60 0440 35a4 42be
000000f0: cfb6 d7bf 558d 1cbf 7155 18bf ef56 1abe
00000100: d9ac c83d fbc3 9b3f 9a8e 42be acc9 d7bc
00000110: b4fa 98bf 669d 0ebe ac6d 0fbf 663d e2bc
00000120: 2dc9 4dbe 31fd 6ebe 557d 3a3f 8bd9 e6bd
00000130: 9924 34bc 50a2 cd3c 6028 b4be a6c4 e63e
00000140: f9d0 4abe f532 0bbf 7444 6cbf 0382 f0be
00000150: c09c 55bf 6a3b 973f 0dcb 29be b6ba 0fbe
00000160: 3208 18be d5a4 273d 1940 353e 1735 4e3e
00000170: 8128 61bf 97ae 38be 57ce 593f e0ba 29bf
00000180: 2bd1 79be 93e8 ffbd d90d cabd d608 8a3e
00000190: 9b9f 6fbe 3475 0dbf f406 9dbe da43 42be
000001a0: f057 d73e 9006 debd 9dd6 cd3d b23b f63e
000001b0: 0989 9f3f a42a 883e 45ce 433e 79b3 d3bd
000001c0: 6acf 2dbd adc5 62bf ac9b cf3e 0b4e 6fbd
000001d0: 31c7 16be 1d47 4bbe cbb4 cabe c09a 78be
000001e0: 337a f7bd abdc c83e 4cb3 1a3e 00c2 12be
000001f0: b5d7 98be e9e9 8bbe 614c bebf 279a 19be
00000200: f7f4 cb3d 3f4b 503e 4436 0abf f04c a4bf
00000210: 9cd9 f43e c142 843e 4ad4 e0be 627e 2ebe
00000220: 421d 1b3f c43d 49be 4bb2 fe3e 5851 4cbf
00000230: d93f ff3c 5bae 3cbe 43a0 41bf 669a 263f
00000240: 56b9 dc3e 4b13 883f 9748 4fbd 549f 2b3f
00000250: 7729 15bf 2104 0cbe 81f8 a6be ecfb c6bd
00000260: f975 17be b225 b1bf dd95 6fbf 3947 40be
00000270: e2f0 2cbf 881d 893f 2e03 fc3d 20a5 b0be
00000280: 9a53 383f c6ca 30bf 20f8 f3be 2e2c bdbe
00000290: 3e29 f6bd cadd 9ebe 2d35 6fbe f18e c1bf
000002a0: af26 59be c576 a33f 0898 bd3f 23a0 bebe
000002b0: 72c0 09bf fbb5 363f 1fbf 27be 8ddb 23be
000002c0: 61d1 2c3f 17d5 1dbe 3f52 cfbe b320 8e3d
000002d0: bcb4 53be dbb0 573e 1d4b 32bf c925 bd3e
000002e0: b8d7 02be a769 87bf bc60 64be 698b 123f
000002f0: 2a38 3a3f 9372 f73d d352 26be b36e fbbd
00000300: bed1 053f fc32 8ebf 5b53 d1be e5aa e4bd
00000310: e7f5 acbf db9b 3cbe 926d c23e 4daf 30be
00000320: 3158 803f f2a3 19be 99a6 61bd e328 9ebe
00000330: 14ba aebe 0344 acbe db79 90be 3e42 c03e
00000340: 5d0c 20bf c54d 36bf fa3e 73bf eb66 c8be
00000350: a5a5 37bf c904 80bd 1b3a 2cbe f503 20be
00000360: f417 48bf 7ca1 813f 83f5 973e 8a84 ea3e
00000370: dd15 953e 9555 2cbe 627c e2bc d270 90bf
00000380: 6d85 cfbd 821c 503f 76f6 26be 0951 39bf
00000390: 9342 1c3e 566e 2f3d bf14 c9be 250f a43e
000003a0: 00ba b9be aeb5 2c3e c5ab e7bd 5f06 91be
000003b0: e45c 1abf 6757 8cbe ce0c c83d 7760 10be
000003c0: dda2 9a3e b1d8 3bbf c5ce b1be 2f31 e1be
000003d0: 99a1 2fbe 4a7c a9be 755f 0cbf 10b2 d3be
000003e0: 5422 e8be 2d87 4dbe 5c0b 45bf 26b7 fc3e
000003f0: 5a57 7e3f 99b9 c63e 1701 8a3e 78a4 94bf

l4.weight f4 [8, 256]
-0.37308845 -0.20121084 -0.4673859 1.134575 -0.0017300204 -0.45211595 1.5603307 -0.087753445
0.48264232 0.9392068 0.020952046 -1.2260467 0.7433356 0.80679595 0.35364386 -0.35657358
-0.123190686 0.8500633 -0.43471852 -0.45377174 0.3673901 0.25392255 0.26008698 0.034645054
0.47568703 0.38027838 0.015215333 0.7519634 -0.35758296 0.33155343 -1.3905835 -0.34368455
-0.02271187 0.22245006 -0.80184364 1.0241369 0.36174044 1.8981786 0.21062493 -0.15732452
0.27292228 -1.0249593 0.71614105 0.075392075 -0.6772766 0.25241625 -0.8213966 0.12802415
0.09905706 0.19907394 -0.15830325 -0.039085347 0.23047496 -0.2924869 0.379901 -0.31400362
1.0531793 0.30418766 0.6954075 0.7737718 -1.3154147 -0.20198102 -0.13360868 0.28379196
0.51351106 0.9843794 -0.12451088 -0.42412245 0.9204 0.9948023 1.4754219 -1.4278903
-0.016065644 -1.1066782 0.41663107 0.0687076 -0.98211676 0.6887549 0.7454707 -0.3775468
0.46307337 0.032336514 0.6181544 -0.8552999 -0.9553759 0.12656188 -0.025453873 0.15248604
0.18825427 0.43205258 0.45584986 -0.36031842 0.9665949 0.905696 0.3927427 0.13235989
0.49915347 -0.8230464 -0.19114038 1.2206913 1.1607665 -0.19936275 -0.3072567 -0.18725301
-0.36721903 0.0036623413 -0.81737214 0.8423545 -0.12094077 0.10677557 0.0631079 -0.02426158
-0.09239761 -0.19105811 0.74873585 0.043205127 0.6912411 0.026860004 -0.16539793 0.01638537
0.44833222 -0.69543976 0.5161483 -0.3824397 -1.3447039 0.2936745 0.19202715 -0.38303405
-0.5603111 -0.22487012 -0.48298198 0.12002478 -0.3467538 -1.1365939 0.957111 -0.15001126
-0.058287423 0.08860115 1.540144 0.77622014 0.23472042 -0.10325783 -0.9238133 2.1357372
0.06576463 0.068566695 0.8352881 -0.89783376 -1.1309279 0.60982203 0.7185656 0.033707023
-0.031409692 -0.09693279 -0.5467543 -0.031951647 0.3675898 0.119942434 -0.47418857 0.94942695
-0.37663227 0.18271886 -0.12622583 -0.89882267 0.040436883 -2.2149286 -0.06556556 0.16147551
-1.0251449 -0.18778694 -0.7347426 -0.0949445 -0.14233355 1.8923044 -0.62695 0.015587398
1.0477217 -0.10756285 0.055157483 -1.0846654 0.9239456 -0.275223 -0.101203516 0.5462018
-0.0050534583 0.51839525 0.8463038 -1.0224253 -0.80525273 -0.29591176 -0.019498046 -0.7952057
-1.0754349 0.21980354 0.37676132 -0.07360197 -1.5259612 0.30792493 -1.1298923 0.16350885
0.30075234 -0.36555782 0.43963832 1.7441144 -0.11272611 0.14297414 0.33799446 -0.7423797
-0.58117294 -0.1365146 0.82129645 -0.118015535 -1.2769607 -0.6498588 -0.13717887 0.040873617
-0.45554084 -1.8541293 -0.22099115 0.05282387 -0.64250517 0.025564637 -1.0391886 0.12798281
-0.84618175 -0.92565763 0.002385778 -0.29773715 1.7928199 -0.23571643 0.7723229 0.27375874
0.19540013 -1.4012867 -0.018770099 -0.04954194 -0.06432641 0.58512634 0.044314977 -0.14174858
0.83932686 -0.41609016 -0.6543212 -0.57771903 -0.12455509 0.6077821 0.7408368 0.22129011
-0.21012995 -1.6717372 0.28251383 -0.6879476 0.8694998 -0.11229265 0.343748 0.7680614
00000000: 7305 bfbe 370a 4ebe 344d efbe c139 913f
00000010: dac1 e2ba be7b e7be ebb8 c73f 14b8 b3bd
00000020: e51c f73e db6f 703f a0a3 ab3c 19ef 9cbf
00000030: 3e4b 3e3f 2e8a 4e3f cf10 b53e d090 b6be
00000040: 664b fcbd c09d 593f 6d93 debe c554 e8be
00000050: 8e1a bc3e 2302 823e 1f2a 853e f9e7 0d3d
00000060: 408d f33e d9b3 c23e bb49 793c ac80 403f
00000070: 1d15 b7be 5fc1 a93e a4fe b1bf 6cf7 afbe
00000080: 3e0e babc f3c9 633e a045 4dbf eb16 833f
00000090: 0b36 b93e 84f7 f23f 10ae 573e ae19 21be
000000a0: 78bc 8b3e de31 83bf 0555 373f 2967 9a3d
000000b0: 0062 2dbf b43c 813e 0c47 52bf c318 033e
000000c0: 6ede ca3d 0ada 4b3e 3f1a 22be f517 20bd
000000d0: a101 6c3e d8c0 95be 6282 c23e 15c5 a0be
000000e0: 94ce 863f 7cbe 9b3e 3a06 323f e915 463f
000000f0: 825f a8bf 1dd4 4ebe b7d0 08be 2e4d 913e
00000100: 7675 033f 4a00 7c3f 8fff febd 9426 d9be
00000110: 569f 6b3f 5dab 7e3f a0da bc3f 1cc5 b6bf
00000120: 199c 83bc a2a7 8dbf ab50 d53e 92b6 8c3d
00000130: 016c 7bbf 3e52 303f 2bd7 3e3f d04d c1be
00000140: f417 ed3e 4b73 043d 5e3f 1e3f eff4 5abf
00000150: 8493 74bf 7099 013e a484 d0bc 4d25 1c3e
00000160: bac5 403e ff35 dd3e 2765 e93e a87b b8be
00000170: c372 773f b1db 673f 9215 c93e 5a89 073e
00000180: 0b91 ff3e 2bb3 52bf 4eba 43be 9d3f 9c3f
00000190: ff93 943f c025 4cbe c050 9dbe 41bf 3fbe
000001a0: 2204 bcbe e403 703b 4d3f 51bf 8ba4 573f
000001b0: cbaf f7bd 26ad da3d b73e 813d 39c0 c6bc
000001c0: f53a bdbd bda4 43be 27ad 3f3f dcf7 303d
000001d0: 2df5 303f 8309 dc3c 135e 29be 9d3a 863c
000001e0: cd8b e53e 5708 32bf 4c22 043f 23cf c3be
000001f0: 421f acbf 815c 963e c4a2 443e 0a1d c4be
00000200: 8c70 0fbf 5a44 66be 6a49 f7be 8dcf f53d
00000210: b789 b1be e97b 91bf 3a05 753f 8d9c 19be
00000220: cbbe 6ebd 8574 b53d 7023 c53f 5db6 463f
00000230: 8d5a 703e d778 d3bd 077f 6cbf ebaf 0840
00000240: 9baf 863d b26c 8c3d 71d5 553f 6fd8 65bf
00000250: 3fc2 90bf 4c1d 1c3f eaf3 373f 6010 0a3d
00000260: 73a7 00bd b384 c6bd 17f8 0bbf bbdf 02bd
00000270: bb34 bc3e 61a4 f53d d8c8 f2be a50d 733f
00000280: f2d5 c0be a71a 3b3e 5841 01be 3e19 66bf
00000290: 25a1 253d 64c1 0dc0 3c47 86bd d659 253e
000002a0: f337 83bf 384b 40be 1718 3cbf 4372 c2bd
000002b0: e3bf 11be 0837 f23f cc7f 20bf 4962 7f3c
000002c0: bf1b 863f e949 dcbd d0ec 613d 51d6 8abf
000002d0: b387 6c3f 07ea 8cbe ca43 cfbd e2d3 0b3f
000002e0: 7b97 a5bb 8db5 043f 5ea7 583f d5de 82bf
000002f0: 0b25 4ebf bf81 97be 5eba 9fbc 9a92 4bbf
00000300: daa7 89bf 2e14 613e dce6 c03e a1bc 96bd
00000310: b252 c3bf 56a8 9d3e 50a0 90bf dd6e 273e
00000320: 36fc 993e 652a bbbe 4618 e13e 243f df3f
00000330: f2dc e6bd d067 123e 9c0d ad3e 990c 3ebf
00000340: c0c7 14bf 7cca 0bbe 7c40 523f 21b2 f1bd
00000350: 7373 a3bf 255d 26bf 9e78 0cbe 186b 273d
00000360: a63c e9be 1c54 edbf 814b 62be d85d 583d
00000370: 387b 24bf ee6c d13c 2204 85bf ed0d 033e
00000380: 5e9f 58bf e6f7 6cbf b65a 1c3b 0171 98be
00000390: 1f7b e53f a65f 71be f4b6 453f 1b2a 8c3e
000003a0: f916 483e 5d5d b3bf c0c3 99bc 7dec 4abd
000003b0: 91bd 83bd d7ca 153f 9f83 353d 8a26 11be
000003c0: 20de 563f c509 d5be 9881 27bf 65e5 13bf
000003d0: bd16 ffbd 9c97 1b3f 7ba7 3d3f e099 623e
000003e0: 4e2c 57be 7cfb d5bf a7a5 903e 551d 30bf
000003f0: 8a97 5e3f b0f9 e5bd bdff af3e ac9f 443f

l4.bias f4 [8]
0.76866204 2.3517087 -0.31237763 2.3895743 0.62303025 -0.43396673 1.2196313 -0.10302225
00000000: 09c7 443f 6582 1640 f6ef 9fbe c9ee 1840
00000010: e97e 1f3f e330 debe e11c 9c3f 54fd d2bd
